app/src/main/assets/test0.tflite (tflite, 10144 bytes, 7 tensors)

MatMul_1_bias f4 [64]
00000000: b101 873e 77ae 5dbf 1e27 203f c6cf a7bf
00000010: c845 8d3f 975d 8cbf dcb1 5cbf 66ec 5f3f
00000020: b052 183f 9ef2 86bf 231b 2fbf 9b4c d4bd
00000030: 5aa6 70be 0a6f 863f 174a 9fbf e081 8b3f
00000040: 636b 25be 7e37 02bd aef6 55bf 5643 313f
00000050: a9e0 523f a768 0c40 8c04 0d3f 514d 3e3f
00000060: 7966 883d 84a5 4cbe 216d 1fbe 8e8e 94bf
00000070: a52e 0fbf 509e 133f 7a3e ad3e 61ca 71bf
00000080: 875b 0e3e 4760 b0bf 620f 02bf 7e14 c5be
00000090: f3ab c4bd 49af 7bbf bfdc 18bf f5f3 ff3e
000000a0: 8b62 d63e 6927 b83f e38a c33f 1759 443f
000000b0: 80ca 86bf d059 c1bc 3237 19bf a96b 2bbf
000000c0: 72ca a8bc 424b a23f 7fac 0ec0 939c bcbf
000000d0: fbb0 2bbf 5bf0 a73f b998 1abe e373 693f
000000e0: 5deb 5abf 6058 543f 2cfa cdbe 47c4 183f
000000f0: a6f9 cdbe c261 c73f f2f0 d93f 14ed 1a3e
0.26368478 -0.8659434 0.6255969 -1.3110282 1.103692 -1.0966061 -0.8620889 0.8747009
0.5950117 -1.0542791 -0.6840078 -0.10366174 -0.23500958 1.0502636 -1.2444485 1.089901
-0.16154246 -0.031791203 -0.8357953 0.6924337 0.82374054 2.1938875 0.55085063 0.74336725
0.0666017 -0.19985014 -0.15568973 -1.1606004 -0.5593055 0.5766344 0.33836728 -0.9444943
0.13902102 -1.3779382 -0.5080472 -0.38492197 -0.09603109 -0.9831434 -0.5971183 0.49990812
0.41872057 1.4387027 1.527676 0.7669844 -1.0530548 -0.023602396 -0.59849846 -0.6696115
-0.020604346 1.2679217 -2.2292783 -1.4735283 -0.67066926 1.3120226 -0.15097322 0.91192454
-0.85515386 0.8294735 -0.40229928 0.59674495 -0.4022953 1.5576708 1.7026656 0.151295

MatMul_2_bias f4 [16]
00000000: 2e65 023f 008e 5fbf 5dd3 683e c8f1 1d3f
00000010: 2873 c0be 8fc9 0ac0 eba1 28bc f88b 96be
00000020: ee8d 003f 3d11 d6bf 9688 23bf 536b 54be
00000030: 7b0b 00bf 2e8e 1c3f 3433 0540 30d4 5a3f
0.5093564 -0.8732605 0.22736879 0.61697054 -0.37587857 -2.1685522 -0.0102925105 -0.29403663
0.5021657 -1.6724011 -0.6388029 -0.20744066 -0.5001752 0.6115445 2.0812502 0.8548002

MatMul_bias f4 [16]
00000000: 9b26 053f 7483 953e fc0f 6b3f ccd8 dbbf
00000010: d383 85bf 83e5 bbbe f162 0fbe 51a9 6b3c
00000020: efb9 36bf 3547 5ebd 2e8e 873f 6299 f53f
00000030: a035 15be da3f cbbe ff1d 3d3f 1146 673f
0.5201203 0.29201853 0.91821265 -1.7175536 -1.0430855 -0.3669854 -0.14002587 0.01438363
-0.7137746 -0.054267127 1.0590265 1.9187434 -0.14571238 -0.39697152 0.73873895 0.9034129

Variable/transpose f4 [16, 1]
00000000: 07c7 98bf a143 84bf 4fc2 053f 8590 983d
00000010: 6769 fbbf c103 acbe bfce b43d e9a3 94be
00000020: 593c 0040 2809 b03d bf12 16bf 7f60 4ebf
00000030: ff8a 033f 2e19 e63f 4a61 cf3e 487d d13e
-1.1935738 -1.0333139 0.52249616 0.0744944 -1.9641541 -0.33596614 0.08828496 -0.29031304
2.0036833 0.085954964 -0.58622354 -0.8061599 0.51383966 1.7976434 0.40503913 0.40915895

Variable_2/transpose f4 [64, 16]
00000000: 5649 353f 0cf1 0fbe 52c9 ba3f b33b 963e
00000010: f600 f2be 3f5b 52bf 5352 0140 d57a e33e
00000020: ac76 263f a2fb 3d3f a99c 0b3f a756 aebf
00000030: a213 a93f 5ec3 bebc 6516 083f 445c 09bf
00000040: 03c6 f33e d629 97be 96c6 0cbf 70a9 9cbf
00000050: be4b bf3e a163 35bf 1536 523d e090 5ebf
00000060: 8b29 b7be 66de 4dbe 3eb7 3bbf a3ab 2b3f
00000070: 61cd 0dbe 291d 95bf 5305 023f a48d 1340
00000080: 9432 86bf 307f b73f bc7a 21bf 3950 c9be
00000090: 32cb 4abe 7bda bfbd 91ec 81bd 28cc 21bf
000000a0: 4d04 863f 5270 523f 96b8 07bf 72fa 853f
000000b0: bdfc c0be 41cf b43d cbc7 0fbe 49ee 8e3e
000000c0: 97c1 91bb 54c4 a7bf 6638 0bbf 4948 f2be
000000d0: e8b6 073f b001 283f 043c abbe e9c1 87bf
000000e0: 9c42 1f40 c120 91be c025 52bc 5826 1ec0
000000f0: de6e 41bf a089 9bbf decc f7bf 834d b63f
00000100: 0a9c 923d 7453 e83f b65a 233f f254 bc3f
00000110: 8ecf 00bf 9d22 e7bf b294 8f3f b047 c0bd
00000120: fce7 89be a8b9 b03e 5b91 87bf 8d65 323d
00000130: fcdb 1abf 1a7f 8d3e 28bc 1ebf bc12 2fbf
00000140: b11d 6e3d 2e9a b63e 2d11 e53f c939 86bd
00000150: 3a98 c43f 9e2d c63f 2aca ba3e 3312 05c0
00000160: fc7d 573f 5cb4 90bf 6466 903f ed66 67bf
00000170: fe54 c83e bed1 123f d0e3 19bf c7a4 b43f
00000180: d355 9abf a73f 983e 86da 00bf cb22 1c3f
00000190: 086d 7a3e 0818 683f 4711 ec3e ad37 103e
000001a0: 765f aebe 91c7 08c0 9739 64bf f667 2bbe
000001b0: 06cc 14bf 3067 22bf e285 90bd 50a7 9b3f
000001c0: b25d 933f 852d a93f aa89 a03f ee2d 113f
000001d0: 6335 e5be d8f4 a7bf 18f9 11bf 63bf 4a3e
000001e0: a6ad 11c0 780d 55be 0770 e73f 74df ae3f
000001f0: 61b2 f5be 7304 26bf 1f77 693d 569f bd3e
00000200: 8cae c3bf eabc c0be 6eed e53d 80e7 f03d
00000210: ac4b 91be 5f50 abbf 8a02 debf 8e4c 483f
00000220: 5b7b bd3f 74ed 8ebf f473 afbf 3bcc cebe
00000230: bf7e 943e de67 5fbf 4cf2 febe 2fb1 dcbf
00000240: d576 e13f 23c0 6abf 52f9 7a3f ea80 dd3e
00000250: a1f1 253f 63a4 1d3f ae3c 0ac0 0329 b3bf
00000260: adbb fcbe f024 943f 1206 7e3f 3abb 80bf
00000270: 813e 663e 523c 11bf 2744 283f b8b6 8c3f
00000280: e525 bf3f 34b2 2e35 bd5f 333f 9d31 113f
00000290: 1f69 35bf dac6 9cbf 0ebf afbf 3786 3e3e
000002a0: cdaf f53e bd75 763f df05 5f3f 929d 2ebf
000002b0: 713d 633f 36dc 5b3e 2b5f e1bd 95d6 33bf
000002c0: d5b4 a93d 2180 bfbe aa68 b6bf 7372 e73e
000002d0: 6f94 02c0 2bdd 8e3e 62a5 63be 6353 12bd
000002e0: a1a3 9abf 1180 dcbe d475 b93f 3c57 81be
000002f0: d18f 0f3f 85a6 053e 8432 e7bf 94c8 823f
00000300: 5d01 883f 1445 933e 7520 adbd 2925 bbbe
00000310: fdee 283f 0a56 903f 0f74 a63e 26e5 033f
00000320: 531e f1bf 0fe1 c7be 653e 8bbf 0d95 3bbf
00000330: c9ed 3d3f f08f 25c0 bed0 2abf ace8 12c0
00000340: 01c7 bcbf 03f2 dcbf bf91 173e 82e2 c1bf
00000350: f743 cf3e 1d0a 8e3e f76c 87bf e51b 9ebf
00000360: 4e87 b1bf 6e4f 7cbf 77d4 9abf bfde 04bd
00000370: f85b b5be 70c5 813e c548 10bd 9b67 2140
00000380: bc92 8dbf 407f b83f 2b30 0a3f e6c1 d23f
00000390: 41bb 363f ebfe b63f 66ec 9cbd e36a 453f
000003a0: 4e61 783e 4d05 8e3f 2d65 a7bf e3d1 1fbf
000003b0: abc8 9f3f 004e 0cbf 31da fe3e f65c 67bf
000003c0: 665d 38bf 8886 15bf dc8c 7b3f 53c6 aa3e
000003d0: 88f6 843f d97f 9fbf b995 a93f 60ba 9f3e
000003e0: f8e6 943f 6a02 12c0 217b 0e3f b144 67bf
000003f0: 594c 65bf e9ee 353f f7c4 3c3f 37ff a53f
0.70815027 -0.14056796 1.4592688 0.29342422 -0.47266358 -0.8217048 2.0206497 0.4442965
0.6502483 0.74212086 0.5453592 -1.3620194 1.3209116 -0.023286518 0.5315917 -0.5365641
0.47612008 -0.29524106 -0.5499052 -1.2239208 0.37362474 -0.70855147 0.051321108 -0.8693981
-0.35773882 -0.2010437 -0.7332648 0.6705877 -0.13847877 -1.1649524 0.50789374 2.30552
-1.0484185 1.433569 -0.630779 -0.39319018 -0.19804075 -0.09367844 -0.063439496 -0.6320214
1.0470062 0.8220264 -0.5301603 1.0467055 -0.37692824 0.08828593 -0.14041059 0.27916172
-0.0044481265 -1.310679 -0.5438293 -0.47320774 0.5301347 0.65627575 -0.33444226 -1.0606052
2.4884405 -0.28345302 -0.012826383 -2.4710903 -0.75559795 -1.2151375 -1.9359396 1.4242405
0.07158668 1.8150468 0.6381029 1.4713423 -0.50316703 -1.8057438 1.1217253 -0.09388673
-0.26934803 0.34516644 -1.0591234 0.043553878 -0.6049192 0.27636033 -0.62005854 -0.6838796
0.058133785 0.35664505 1.7895867 -0.065539904 1.5358956 1.5482671 0.36482364 -2.0792358
0.8417661 -1.1305041 1.1281247 -0.9039143 0.39127344 0.5735129 -0.6011324 1.4112786
-1.2057441 0.29736063 -0.5033344 0.6099059 0.24455655 0.9066167 0.46106932 0.14083739
-0.34057206 -2.1371806 -0.89150375 -0.16738877 -0.58123815 -0.634387 -0.07056786 1.2160435
1.1512969 1.3217016 1.2542012 0.5671071 -0.44767293 -1.3121595 -0.5702071 0.1979957
-2.2762237 -0.20805919 1.8081063 1.3661942 -0.47987655 -0.6485054 0.05699837 0.37035626
-1.5287642 -0.3764413 0.11226927 0.11762905 -0.28378046 -1.3383902 -1.7344525 0.78241813
1.480327 -1.1166215 -1.3707261 -0.4039019 0.2900295 -0.87267864 -0.49794233 -1.7241572
1.761439 -0.9169943 0.9803668 0.43262416 0.6482182 0.6157896 -2.1599536 -1.3996891
-0.49361935 1.1573772 0.9922801 -1.0057137 0.22484781 -0.56732666 0.6572899 1.0993261
1.493344 6.507937e-07 0.7006796 0.5671633 -0.7086353 -1.2248185 -1.373018 0.18605886
0.47985688 0.96273404 0.87118334 -0.68209183 0.8876563 0.21470723 -0.1100448 -0.702493
0.08286444 -0.37402442 -1.4250691 0.45204505 -2.0403097 0.27903113 -0.22231057 -0.035724055
-1.2081186 -0.43066457 1.4489083 -0.25261867 0.5607882 0.13051803 -1.8062291 1.0217462
1.0625416 0.2876364 -0.08453456 -0.36551788 0.6598967 1.1276257 0.3251042 0.5152153
-1.8837379 -0.39038894 -1.0878416 -0.7327431 0.74190956 -2.5869102 -0.66724765 -2.2954512
-1.4748231 -1.7261356 0.14801691 -1.514725 0.4048154 0.2774209 -1.0580128 -1.2352263
-1.3869417 -0.985587 -1.2096089 -0.03243899 -0.3542173 0.25345945 -0.03522565 2.5219486
-1.1060405 1.4413834 0.5397975 1.6465423 0.71379477 1.4296545 -0.07662277 0.7711622
0.24255869 1.1095368 -1.3077751 -0.62429637 1.2483114 -0.5480652 0.49775842 -0.9037622
-0.72017515 -0.58408403 0.9826181 0.33354434 1.0387735 -1.2460891 1.3248817 0.3119688
1.1632986 -2.2813973 0.5565663 -0.9033919 -0.8956962 0.7106767 0.73738045 1.296851

Variable_4/transpose f4 [16, 64]
00000000: c5d8 083e 79f0 52be 6f75 b1bc 3cd5 ad3d
00000010: 89cf f23c 86ba f8bf 7963 ebbe 93b8 1c3d
00000020: 2b9b fe3d b67a a7bf 3cef 523f 59e1 9abf
00000030: e023 2c3f 96e8 483f b087 a63f 1eed b73e
00000040: 4d85 7a3f 21ae 25bf 24fd d9bf 6faf aebe
00000050: 83f9 663e 207d b2be a4dd 983f 74c4 63bf
00000060: 3bd7 76bf d3f0 8abf fb09 2cbf 5f16 cb3e
00000070: f5a4 2d3f 9d57 bfbc 457d b83e f2d0 573f
00000080: 71b2 d4bf 3b8c 65bf 52a1 28bd 288f 43bf
00000090: 5daa 1640 61f0 0c3f f773 26bf 9458 96bf
000000a0: e97f 5f3f de99 633e e581 92bf 1c09 5f3f
000000b0: 0976 1c3f 517e 73bf fe7d 353e f130 f33f
000000c0: 6569 5b3f 09fe 70bf 8926 0ec0 d038 7fbe
000000d0: 868b 05bf 9171 4d3f 425a a8be 7dd7 23bf
000000e0: 8ea4 b53f 88c8 fc3e 8d12 eebf 87d6 b0be
000000f0: a694 6f3f 9716 be3f 671c 87be 35b1 8dbf
00000100: eb7a c43f 196a 59be 6f5c 39be f4e9 b8bf
00000110: a913 c4bf 4132 173f c239 a53f f1e9 213f
00000120: f4c9 b4be b134 ce3e 5de2 da3f 9bdb cbbe
00000130: affe de3f 2bf4 a0bd 099a 5ebf df93 6d3f
00000140: 004a 88bf 4324 ab3c a5a8 20bd d963 723f
00000150: 19e1 7d3d b194 a53e 4f51 193f bfff a6bd
00000160: 3fca b03e 2529 58c0 ab36 b33e 6f37 2cbe
00000170: e351 0c3f 7507 9cbc 4a9e 80bf 97fa 73bb
00000180: d90f 303f 0aa7 a93f a858 3540 b669 d13f
00000190: 9fb8 c73f e948 3c3f 210d 1dbd fe65 a23e
000001a0: 25ea 903f abd7 313f 3eec 27bf ace4 07bf
000001b0: ad90 773f 7c97 ac3e ed1a bc3e 2c7b 9e3e
000001c0: ff1d 4dbf 43ab 4f3e 537c 99bf e36b 8a3d
000001d0: 9037 29bf 5cc5 943f 8d8f eeba 59c9 a83f
000001e0: 8a68 b0bf e5bc 363f 7791 31bf eba3 11bf
000001f0: 4b5b 78bf 29ed 423f 43db 073e 271b aebf
00000200: 248b 4e3c 9d3d 883f 4d9d c9be e6d9 953f
00000210: d7e1 253f 03cc a63f 55b2 8abf e112 0b3f
00000220: be3b c83f 4b41 873c 4a8a 103f a0b4 4f3f
00000230: 76dd a73e af87 103f 6fb1 f03e e5cc 023f
00000240: 8976 90be 1b27 2ebf 25fb 183f b0ed 033f
00000250: 2ab7 063e f4c4 03bf 898a d03f 9dd3 a4bf
00000260: 5f6e d5bf 5e74 273f 2808 aa3e 6741 97bf
00000270: afd8 7bbf 5a5f 6d3e f6fd febd dce1 cb3f
00000280: 80b0 e2be 6c92 91bf d5b8 90bf a1be 39be
00000290: 696b 7a3f b215 c4bf 3fa8 083e 0d6d 7e3f
000002a0: 5fb6 c2be 239b e13f b951 2c3f e911 88bd
000002b0: df7a 96be fd6a 4fbc 2046 813f fd34 02c0
000002c0: b3c1 5abf 3884 143f 1088 8dbf 8013 c7bf
000002d0: b6f5 50be a9fb 513f 25aa dab9 0faa 4ebf
000002e0: 716a fc3e e525 9c3e c98d 033f 600b 84bf
000002f0: c82d cebe 84b4 dbbc d140 393f 760f 97be
00000300: 558a 50bf fba2 bdbf 9046 a6bf c00b ea3e
00000310: 5880 5d3f d107 a73f 5c7e 9f3f d8dd db3e
00000320: 3842 3fbe a11e 2bbf 238f 003f f3ab bb3d
00000330: 13c8 ea3e 4b25 75bf dda5 b8be 5575 1cbf
00000340: 12de 1ebf cb6f 873d 84f0 79bf cb92 213f
00000350: f469 3b3f 0b1f d43d 54fc 6bbe a0ff 53bf
00000360: 59ed 313f 57bc fb3e b20b 77be 14a1 eebf
00000370: 0781 8bbf a2fc b6be 9bb3 a2be 72b6 6abf
00000380: 4047 3a3f 844e 723e 4b27 d1bf 6099 a2bc
00000390: 3a12 773f 5536 cd3e 3154 7dbf f9a2 b93e
000003a0: 04cf 613f 9643 3d3f 5538 96bf 3a60 9e3f
000003b0: 8979 dabe 4a9d c23f 1f78 78be 5f1e cd3f
000003c0: 5311 493f 2afe 893e 48cc be3e 82fa 763f
000003d0: b3e4 963f 7f8f 7c3f 8cb9 923f 20da 123f
000003e0: 6893 b93f 378e 763e 4d9e c13f 5f12 2bbf
000003f0: 1060 5f3e cb7d ae3e 9293 59bf cde4 cfbe
0.13363941 -0.20599546 -0.021662442 0.08487937 0.029639976 -1.9431922 -0.4597433 0.03826196
0.1243194 -1.3084323 0.8239629 -1.2100021 0.6724224 0.784799 1.3010159 0.35923094
0.9785965 -0.64718825 -1.7030377 -0.3411822 0.22556119 -0.34861088 1.1942639 -0.8897164
-0.96422166 -1.0854744 -0.6720273 0.39665505 0.6782983 -0.023357207 0.36033073 0.843032
-1.6616956 -0.896671 -0.041169472 -0.76390314 2.3541481 0.5505429 -0.650207 -1.1745782
0.8730455 0.22226664 -1.1445891 0.87123275 0.6111761 -0.9511462 0.17723843 1.8999311
0.85707694 -0.94137627 -2.221102 -0.24924016 -0.5216602 0.80251414 -0.3288136 -0.64000684
1.4190843 0.49371743 -1.8599411 -0.3453867 0.93586195 1.4850644 -0.26388857 -1.1069704
1.5350012 -0.2123188 -0.18101667 -1.4446397 -1.53185 0.59061056 1.2908251 0.6324759
-0.35310328 0.40274575 1.710033 -0.39815983 1.7421473 -0.07859071 -0.8695379 0.9280376
-1.0647583 0.020891314 -0.039223332 0.94683605 0.061982248 0.32340005 0.5988969 -0.081542484
0.34529302 -3.3775113 0.35002646 -0.16818021 0.5481245 -0.019046525 -1.0048306 -0.003722822
0.6877418 1.3254101 2.8335361 1.6360385 1.5603217 0.7354875 -0.0383426 0.3171844
1.1321455 0.6946971 -0.6559485 -0.530833 0.9670513 0.33709323 0.36739293 0.30953348
-0.80123895 0.20280175 -1.1991066 0.06758859 -0.66100407 1.1622729 -0.001820074 1.3186446
-1.3781903 0.7138198 -0.69362587 -0.56890744 -0.970143 0.7614313 0.13267235 -1.3602036
0.012606416 1.0643803 -0.39377823 1.1707122 0.6479773 1.303101 -1.0835673 0.5432568
1.5643232 0.016510626 0.5646101 0.81134987 0.3278615 0.56457037 0.4701037 0.51093894
-0.28215435 -0.6802842 0.59758216 0.5153456 0.13155809 -0.514724 1.6292278 -1.2877079
-1.6674308 0.6541194 0.33209348 -1.1816834 -0.9837751 0.23180905 -0.12450783 1.5928302
-0.44275284 -1.137281 -1.1306406 -0.18139125 0.97820145 -1.5319121 0.13345431 0.9938515
-0.38029763 1.7625469 0.673122 -0.06644041 -0.29390618 -0.012659785 1.0099525 -2.0344841
-0.8545181 0.5801425 -1.1057148 -1.5552826 -0.20406231 0.8202463 -0.00041706968 -0.8072824
0.49299958 0.3049766 0.5138822 -1.0315971 -0.40269303 -0.026819475 0.72364527 -0.29503983
-0.8146108 -1.4815363 -1.2990284 0.4571209 0.8652396 1.304926 1.2460437 0.4294269
-0.18677604 -0.6684361 0.5021841 0.09163656 0.4585577 -0.9576003 -0.36064044 -0.61116534
-0.620576 0.0661312 -0.9763262 0.63114613 0.73208547 0.103574835 -0.23045474 -0.8281193
0.6950279 0.4916713 -0.24125555 -1.8642907 -1.0898751 -0.3573962 -0.31777653 -0.9168464
0.7276497 0.23662764 -1.6340116 -0.019848526 0.96512187 0.40080515 -0.9895659 0.3625715
0.88206506 0.7393125 -1.1735941 1.2373116 -0.4267085 1.5204251 -0.24264573 1.6024894
0.7854206 0.26951724 0.3726523 0.96475995 1.1788543 0.9865646 1.1462874 0.5736408
1.449811 0.24077688 1.5126435 -0.6682491 0.21813989 0.34080347 -0.849908 -0.4060425

Variable_6/transpose f4 [1, 16]
00000000: beb3 23bf daf8 fc3f a041 6cbe 2396 1dbe
00000010: 885e 733e c011 8fbd 6b94 cabf 7bb7 b9bd
00000020: c820 ef3e c4b5 a93e b6c8 9b3f b484 4ebf
00000030: c0fa 1640 484f 76bf d83c 1f3f c68a 10be
-0.6394614 1.9763443 -0.23071909 -0.15389304 0.2376653 -0.069858074 -1.5826544 -0.09068199
0.46704698 0.3314649 1.2170627 -0.8067124 2.3590546 -0.96214724 0.62202215 -0.14115438
